models/gesture_classifier.tflite (tflite, 6528 bytes, 6 tensors)

sequential_1/dense_5/BiasAdd/ReadVariableOp f4 [3]
0	0xbde6b784	-0.112654716
1	0xbe70670f	-0.23476814
2	0x3ea0e35c	0.3142346

sequential_1/dense_4/BiasAdd/ReadVariableOp f4 [10]
0	0xbd977894	-0.07396045
1	0x3de4cf51	0.11172355
2	0x3e5ab823	0.21359305
3	0x3ea13dd0	0.31492472
4	0x3ed3bee2	0.4135657
5	0x3d2dfb60	0.042476058
6	0xbd5e5641	-0.054281477
7	0x3d5e04c4	0.054203764
8	0x3d8d8073	0.06909265
9	0xbcef0100	-0.029175282

sequential_1/dense_3/BiasAdd/ReadVariableOp f4 [20]
0	0xbe468cca	-0.19389644
1	0x3e73ea54	0.23819858
2	0xbde1f314	-0.110326916
3	0x3e2f2693	0.17104559
4	0xbd83afff	-0.06430053
5	0xbe71c9e2	-0.23612168
6	0x3d9bcbff	0.076072685
7	0xbe0a0564	-0.13478619
8	0xbe16086f	-0.14651655
9	0xbd194a92	-0.03742463
10	0xbd492526	-0.049107693
11	0xbe0cf607	-0.13765727
12	0x3e1ad8f8	0.1512183
13	0xbdaa3938	-0.08311695
14	0x3d227adb	0.039667945
15	0xbe20f233	-0.15717392
16	0xbbcbbdba	-0.0062176855
17	0x3e4e5363	0.20148997
18	0x3cb1e44d	0.021715308
19	0xbe029ad7	-0.12754379

sequential_1/dense_3/MatMul f4 [20, 42]
0	0xbe7cfb61	-0.24705268
1	0x3d560870	0.05225414
2	0xbd83c883	-0.06434729
3	0xbec59dd6	-0.38596982
4	0x3e1d6401	0.1537018
5	0xbeddb1c3	-0.43299684
6	0x3dcbe79d	0.09956286
7	0xbeb723cd	-0.357695
8	0xbd2461fc	-0.040132508
9	0x3defadcc	0.11703071
10	0x3e8b8079	0.27246454
11	0xbc51608d	-0.012779367
12	0x3ddca68d	0.107739545
13	0xbe0204f2	-0.12697199
14	0xbe3549fb	-0.17704003
15	0x3ec4c3b2	0.38430554
16	0xbde4bc54	-0.11168733
17	0x3e9837a8	0.29729962
18	0x3e24b17c	0.1608333
19	0xbf00a880	-0.5025711
20	0x3e6e7918	0.23288381
21	0x3bb970c3	0.005659194
22	0xbdaa1ad3	-0.083058976
23	0x3d3e43f7	0.046451535
24	0xbca43be4	-0.02004809
25	0x3e88954b	0.26676401
26	0x3cef0046	0.029174935
27	0xbc5d34f0	-0.013501391
28	0x3dbc1f49	0.09185655
29	0xbe19c0bf	-0.15014933
30	0x3cb07da2	0.021544281
31	0x3e15fc1b	0.14646952
32	0xbe1ea447	-0.15492354
33	0x3e4edce4	0.2020145
34	0x3e96b5cf	0.29435584
35	0xbe5bdad4	-0.21470195
36	0x3cff0e4a	0.031134743
37	0xbea256fb	-0.31706986
38	0xbda7836f	-0.08179366
39	0xbea9c1c6	-0.3315565
40	0xbe0732b2	-0.13202932
41	0x3dbdfc65	0.09276656
42	0xbe24d319	-0.16096152
43	0x3d900ca0	0.07033658
44	0xbdd568da	-0.104203895
45	0x3e84f4ec	0.2596811
46	0xbe316483	-0.17323498
47	0xbdb3d325	-0.08780507
48	0x3de37bba	0.11107583
49	0x3ead1000	0.3380127
50	0x3e092155	0.13391621
51	0x3e0a851c	0.1352734
52	0xbe185754	-0.14877063
53	0xbd4c0304	-0.049807563
54	0xbe9faecf	-0.31188056
55	0x3ea022b2	0.3127647
56	0xbac71869	-0.001518977
57	0x3c2e5637	0.010640672
58	0x3b982204	0.004642727
59	0x3ed86e4c	0.4227165
60	0x3e4de027	0.20105039
61	0x3e413265	0.1886688
62	0x3b032439	0.0020010604
63	0x3e25c258	0.16187418
64	0xbe086657	-0.1332029
65	0x3e4944ce	0.19655153
66	0x3da036e3	0.07822969
67	0x3ec8a86d	0.39191
68	0x3d68ba23	0.05681814
69	0x3e9d638e	0.30740017
70	0xbe9ed449	-0.31021336
71	0x3eb5f8d7	0.35541412
72	0xbe7458f2	-0.23862055
73	0x3eb53f92	0.35400063
74	0xbe835581	-0.25651172
75	0x3f0ec27c	0.5576551
76	0xbd858912	-0.06520285
77	0xbd8af645	-0.067852534
78	0x3bd77a97	0.006575893
79	0x3eb9aeb4	0.362661
80	0xbdca41ef	-0.09875857
81	0x3e41a7fd	0.18911739
82	0x3c440908	0.011965044
83	0x3ece6aec	0.4031595
84	0xbe033cb1	-0.1281612
85	0x3d22c060	0.039734244
86	0xbdd7c664	-0.10535887
87	0xbe680fbe	-0.22662255
88	0xbe08f8e6	-0.13376197
89	0x3e4d382f	0.20040964
90	0x3dd6499e	0.1046326
91	0x3e55d5e8	0.2088238
92	0xbd455239	-0.048174117
93	0x3d97d317	0.07413309
94	0xbe1c4013	-0.15258817
95	0x3e16ce56	0.14727148
96	0xbd9eaff6	-0.07748406
97	0x3e0c3b0b	0.13694398
98	0x3c09319f	0.008373647
99	0x3d7c6299	0.061617468
100	0xbd3a2910	-0.045449317
101	0xbae64d5f	-0.0017570666
102	0x3d7fa7ef	0.062416013
103	0x3e0a1e8c	0.13488215
104	0xbd7c5e54	-0.061613396
105	0x3d9cd213	0.07657256
106	0xbdb2c5c8	-0.0872913
107	0xbe556b41	-0.20841695
108	0x3ea87964	0.32905114
109	0xbeb8f06c	-0.36120927
110	0xbe3384f3	-0.17531185
111	0x3ed5cc2a	0.41757327
112	0x3dec3f1b	0.11535474
113	0x3c6e283d	0.014535961
114	0xbdc448ef	-0.095842235
115	0xbe9a9eef	-0.30199382
116	0x3f00b765	0.5027984
117	0xbecabbf8	-0.39596534
118	0x3cdc4edc	0.026893072
119	0xbc389722	-0.011266502
120	0x3d3e2fc8	0.046432287
121	0xbd0175fb	-0.031606656
122	0x3d7ab0dd	0.061203826
123	0xbdad778b	-0.08470067
124	0x3e38fd55	0.18065389
125	0x3e2d2fa5	0.16912706
126	0x3e443010	0.1915896
127	0x3e04693e	0.12930772
128	0xbe40b3c9	-0.18818583
129	0x3e8e1fe9	0.2775872
130	0x3d290f48	0.04127434
131	0x3e4c66d6	0.19961104
132	0xbe84e631	-0.25956872
133	0xbdfe4135	-0.12414781
134	0x3e223f44	0.15844446
135	0x3e1e5ee9	0.15465893
136	0xbe365ba9	-0.17808403
137	0x3cba3e67	0.022734834
138	0x3e344cd4	0.17607433
139	0xbe22d220	-0.15900469
140	0xbe79b19f	-0.24384163
141	0xbef476e2	-0.4774695
142	0x3e5a9045	0.21344097
143	0xbd802a14	-0.06258026
144	0x3e1963bd	0.14979453
145	0x3c8f4440	0.017488599
146	0x3d76bac1	0.060236696
147	0x3e065414	0.13118011
148	0xbd21bd22	-0.03948701
149	0x3e41c07c	0.18921083
150	0xbe209a8d	-0.15683956
151	0x3ebf8962	0.37409502
152	0x3e6a6f15	0.22893937
153	0x3d41e3a0	0.04733622
154	0xbe5060be	-0.20349404
155	0xbd840da6	-0.06447916
156	0x3e3f7bde	0.18699595
157	0x3eb8e611	0.36113027
158	0xbe1b0f3c	-0.1514253
159	0x3d0e248a	0.034702815
160	0xbdbfb3b1	-0.09360445
161	0x3e8aa1a5	0.2707645
162	0xbd8897fc	-0.06669614
163	0xbe250660	-0.16115713
164	0xbc9aa453	-0.018877184
165	0x3d934aaa	0.071919754
166	0x3cc51315	0.02405695
167	0x3e60cc8f	0.21953033
168	0x3d188a90	0.03724152
169	0x3e850286	0.25978488
170	0xbd8c97e1	-0.06864906
171	0xbe99ac43	-0.30014238
172	0x3b7fba6b	0.0039021026
173	0xbe3b0a10	-0.18265557
174	0x3e2d03e4	0.16896015
175	0x3d388877	0.045052018
176	0x3df491f2	0.11941899
177	0x3ce5fee4	0.028075643
178	0x3dfd3814	0.12364212
179	0xbe48330b	-0.19550721
180	0xbe815a95	-0.2526442
181	0xbd033234	-0.0320303
182	0xbdf7d163	-0.12100484
183	0x3e87b8d1	0.2650819
184	0xbe6ced93	-0.23137502
185	0x3eb4ca4e	0.35310596
186	0x3d2f5bcb	0.04281215
187	0xbefc8c50	-0.493258
188	0x3e0e97e4	0.13925129
189	0xbe09a620	-0.13442278
190	0x3d8116da	0.06303187
191	0x3c65e126	0.01403073
192	0xbe110030	-0.14160228
193	0x3e30167a	0.17196074
194	0xbdb8813b	-0.09009024
195	0xbe7f904e	-0.24957392
196	0xbd8cc311	-0.068731435
197	0xbdb6933c	-0.089148015
198	0x3ddcc75e	0.10780214
199	0x3e8828e0	0.26593685
200	0xbe3b3069	-0.18280186
201	0x3e603ee9	0.21898998
202	0x3dbc945b	0.09207984
203	0xbeb15253	-0.3463312
204	0x3eca4ca9	0.39511612
205	0xbec722a3	-0.38893613
206	0x3e0bd0a8	0.13653815
207	0x3e21adaf	0.15788911
208	0xbd9f4722	-0.077772394
209	0x3e6dd3f5	0.23225386
210	0xbe5e1577	-0.21687876
211	0xb7a1c000	-1.9282103e-05
212	0xbee094ee	-0.43863624
213	0x3e6f6881	0.23379709
214	0x3d3da4f1	0.04629988
215	0x3d9f710f	0.07785236
216	0xbdc5158f	-0.096232526
217	0xbdc91fb5	-0.09820501
218	0x3e454a8a	0.19266716
219	0xbeaed5d2	-0.34147507
220	0x3d8e2bf1	0.06941975
221	0x3cfd76c0	0.030940413
222	0x3e9b26b1	0.30302957
223	0xbd020c8e	-0.031750254
224	0xbe23b3b8	-0.15986526
225	0x3d6c8376	0.05774256
226	0xbebe0f80	-0.371212
227	0x3d8aa959	0.06770582
228	0x3ddee0f6	0.10882752
229	0x3cca357d	0.024683708
230	0x3e915d8b	0.2839168
231	0xbe0a6206	-0.13513955
232	0xbd3625af	-0.04446953
233	0x3e465747	0.19369231
234	0xbe251fc0	-0.16125393
235	0x3d1b8f78	0.03797862
236	0x3eb70216	0.3574378
237	0x3daa71ef	0.08322512
238	0x3e0c76f9	0.1371726
239	0x38220d48	3.863618e-05
240	0x3e21fcfc	0.15819162
241	0x3e4c885e	0.19973895
242	0xbd60fb62	-0.054927237
243	0xbc3f3b88	-0.011671908
244	0x3dba9b40	0.09111643
245	0xbe71478d	-0.2356245
246	0x3eadafe3	0.33923253
247	0xbdb537b3	-0.088485144
248	0xbe124b33	-0.14286499
249	0xbd515efe	-0.051115982
250	0x38b59c90	8.6599146e-05
251	0xbd68cd7c	-0.05683659
252	0x3e95c094	0.29248488
253	0xbe30f152	-0.17279556
254	0xbeeb54e6	-0.4596321
255	0x3e98f5d4	0.29875052

sequential_1/dense_4/MatMul f4 [10, 20]
0	0xbeec1261	-0.46107772
1	0xbe9dafa7	-0.30798075
2	0xbeaaf261	-0.33388045
3	0xbebf9631	-0.37419274
4	0xbe80d197	-0.25159904
5	0xbe910c74	-0.28329813
6	0x3e12b93d	0.14328475
7	0x3e24892d	0.16067953
8	0xbe827b8b	-0.2548488
9	0x3c30c38c	0.0107888095
10	0xbe4655e6	-0.19368705
11	0x3ebd0ec3	0.36925325
12	0xbd873b4a	-0.06603105
13	0x3e87f458	0.26553607
14	0x3e0419fe	0.1290054
15	0x3e7a0dfb	0.24419396
16	0x3e8e4bc8	0.27792192
17	0x3d6cdceb	0.05782787
18	0xbee112f5	-0.43959776
19	0x3dc97ae9	0.098378964
20	0xbc9c4a9c	-0.019078545
21	0x3e662b3f	0.22477435
22	0x3d905738	0.07047886
23	0x3eb35cd7	0.3503177
24	0xbe928c30	-0.2862258
25	0xbd9768a7	-0.07393008
26	0x3defda13	0.11711516
27	0xbe369085	-0.17828567
28	0x3e3a4313	0.1818965
29	0xbda50e70	-0.08059394
30	0x3eb02a98	0.34407496
31	0xbe5919ad	-0.21201201
32	0x3d7ab70a	0.061209716
33	0xbc78fb8f	-0.015196695
34	0xbeaec0f9	-0.341316
35	0xbe584a59	-0.21122111
36	0xbdefd440	-0.11710405
37	0x3f16ca17	0.58902115
38	0xbe32083b	-0.17385952
39	0xbe06b03a	-0.13153163
40	0x3f1f5bbe	0.6224936
41	0x3a9f2da7	0.0012144343
42	0xbe77c144	-0.24194819
43	0xbe819ce7	-0.2531502
44	0x3f00f839	0.5037876
45	0x3ea14a25	0.3150188
46	0x3f3125a6	0.6919807
47	0x3edd8db8	0.43272185
48	0x3e9fb6fb	0.3119429
49	0x3ddd7348	0.10813004
50	0xbdf1c792	-0.11805643
51	0x3eede64e	0.4646477
52	0x3e50c71c	0.20388454
53	0x3e99e784	0.30059445
54	0xbe97d693	-0.29655895
55	0x3ee40b9c	0.44540107
56	0x3e421892	0.18954685
57	0x3e47ed0b	0.19524018
58	0xbebda40c	-0.3703922
59	0x3eff811c	0.4990319
60	0xbe900d51	-0.2813516
61	0xbed06689	-0.40703228
62	0xbec9c1aa	-0.39405566
63	0x3ee140cc	0.4399475
64	0xbda6da2f	-0.08147084
65	0xbe1357d6	-0.14388976
66	0x3e177977	0.14792429
67	0x3d5e4469	0.05426446
68	0xbe10a7ff	-0.14126585
69	0x3eb5bf8e	0.35497707
70	0xbe5963fc	-0.21229547
71	0xbde77051	-0.113007195
72	0x3f374079	0.7158275
73	0x3e485b66	0.19566116
74	0x3ea6e288	0.32594705
75	0xbe23ccde	-0.1599612
76	0x3e11da67	0.1424347
77	0x3f2170ce	0.6306275
78	0x3f203b69	0.6259065
79	0xbe5f07b8	-0.21780288
80	0x3e643d5d	0.22289033
81	0x3f49fc3c	0.78900504
82	0xbec0cac2	-0.37654692
83	0x3e6c7db6	0.2309483
84	0x3e72e2af	0.23719285
85	0xbe97af05	-0.29625717
86	0x3dea8e8a	0.114529684
87	0x3e3fb08e	0.18719694
88	0xbec2a2bb	-0.38014778
89	0x3d57b6b1	0.052664462
90	0x3a8b51a8	0.0010629194
91	0xbd8b9973	-0.068163775
92	0xbd01e527	-0.031712677
93	0xbe3a1c7e	-0.18174931
94	0x3e68687b	0.22696106
95	0xbe821ed0	-0.25414133
96	0xbeaa22e2	-0.33229738
97	0x3d1caa5d	0.03824841
98	0xbf03e580	-0.51522064
99	0x3eeb1d5a	0.4592083
100	0x3ef3f762	0.47649676
101	0xbe7270fa	-0.2367591
102	0xbe0b35f1	-0.13594796
103	0xbeb15003	-0.34631357
104	0x3dce65e2	0.10078026
105	0x3e95bd88	0.29246163
106	0xbcd1c9c8	-0.025608912
107	0x3f1671f3	0.5876762
108	0xbe3c4faf	-0.18389772
109	0x3e7311de	0.23737285
110	0x3df073e5	0.11740855
111	0x3f11fa79	0.57022816
112	0x3cc8c35e	0.02450722
113	0x3f0fa5e0	0.5611248
114	0x3e5b80a4	0.21435791
115	0x3f08cd7d	0.5343855
116	0x3e07992b	0.13242023
117	0xbe870139	-0.2636812
118	0xbe23ce91	-0.15996768
119	0x3deda5c6	0.116038844
120	0xbe866eef	-0.2625651
121	0xbdf40d08	-0.11916548
122	0x3ecdb48b	0.40176806
123	0xbe381df5	-0.17980178
124	0x3e835de1	0.2565756
125	0xbd911a16	-0.070850536
126	0xbee1e8fd	-0.44123068
127	0x3ecd178e	0.40057033
128	0xbd829cd4	-0.06377569
129	0x3f02fc10	0.51165867
130	0x3e4b7222	0.19867757
131	0xbd85ed42	-0.06539394
132	0xbe6b6dd7	-0.2299112
133	0x3f1ee58a	0.62069
134	0x3e5d6bed	0.21623202
135	0x3ebe48aa	0.37164813
136	0xbd16d490	-0.03682381
137	0x3cdff28a	0.027337331
138	0x3e7a4654	0.2444089
139	0x3e8a3da5	0.27000156
140	0xbe1309f2	-0.14359263
141	0xbf0179e0	-0.5057659
142	0x3eab07b2	0.3340431
143	0x3daf5466	0.085610196
144	0xbe744b4d	-0.2385685
145	0xbd2d7fce	-0.042358212
146	0xbec7497e	-0.38923258
147	0x3e78955b	0.24275725
148	0xbd67ff80	-0.05664015
149	0x3e9aae3a	0.3021105
150	0x3f058363	0.52153605
151	0xbdbc8fd6	-0.09207122
152	0x3e4f4ca5	0.20244081
153	0x3f007bd5	0.5018895
154	0x3e97b0ef	0.29627177
155	0xbe3745b6	-0.17897686
156	0x3e8e75ef	0.2782435
157	0x3ebd249e	0.36942
158	0x3e07fed4	0.13280803
159	0xbec377df	-0.38177392
160	0xbd8d7624	-0.06907299
161	0xbf0e48ab	-0.5557963
162	0x3e315e6c	0.17321175
163	0xbe8d0dc3	-0.27549562
164	0xbef326be	-0.47490495
165	0xbe966829	-0.29376343
166	0xbc55102d	-0.013004345
167	0x3ea87b79	0.32906702
168	0xbe8ffcbc	-0.2812251
169	0x3f0878d9	0.533094
170	0x3e4e06c5	0.2011977
171	0xbba6f00c	-0.005094534
172	0x3d20c418	0.03924951
173	0x3eac733a	0.3368166
174	0x3e37d06a	0.17950597
175	0x3ee18184	0.44044125
176	0x3f0b8661	0.5450192
177	0xbe8844e4	-0.2661506
178	0xbd018e6b	-0.03162996
179	0xbea7619d	-0.3269166
180	0x3ef87d90	0.48533297
181	0xbe5919ba	-0.2120122
182	0x3edf2cbf	0.43588826
183	0xbe244f63	-0.16045909
184	0x3d5d6aea	0.05405704
185	0x3f0b70e7	0.5446915
186	0x3e8a4e96	0.2701308
187	0x3e468959	0.19388331
188	0x3f01a8a3	0.50647944
189	0x3d69381e	0.056938283
190	0x3da1df22	0.07903887
191	0x3efbba27	0.4916546
192	0xbf075de1	-0.5287762
193	0x3f113a99	0.5673004
194	0xbe27ed32	-0.16399077
195	0xbd69aa26	-0.05704703
196	0xbe15dab7	-0.14634214
197	0xbeb860fe	-0.360115
198	0xbc21b24f	-0.009869172
199	0xbc31bf5f	-0.010848849

sequential_1/dense_5/MatMul f4 [3, 10]
0	0x3f0fa32a	0.56108344
1	0xbec4a8b2	-0.38409954
2	0x3f05bc5d	0.52240545
3	0xbf23a3e3	-0.63921946
4	0x3ec279d6	0.37983578
5	0x3f080673	0.5313484
6	0x3df010bf	0.11721944
7	0xbf4c05b4	-0.796962
8	0xbf0e7b18	-0.55656576
9	0x3f270eb2	0.652568
10	0x3ec5c92e	0.3863005
11	0x3eae0eac	0.3399557
12	0xbf1ddfff	-0.61669916
13	0xbe725b82	-0.2366772
14	0x3b9af3f0	0.0047287866
15	0x3ee47b6e	0.4462542
16	0x3f35aff6	0.7097162
17	0x3f08f792	0.5350276
18	0x3f5cfa43	0.8631937
19	0x3e22c37b	0.15894882
20	0x3e909287	0.28236791
21	0x3eee66ea	0.46562892
22	0x3e42ad98	0.19011533
23	0x3f00df17	0.5034041
24	0x3f54a6dc	0.8306711
25	0xbf03ef84	-0.51537347
26	0xbf11a8ce	-0.568982
27	0xbf02f96f	-0.51161855
28	0xbf06a9bc	-0.52602744
29	0xbd92845b	-0.07154151
