models/pointing_classifier.tflite (tflite, 5524 bytes, 6 tensors)

sequential_2/dense_8/BiasAdd/ReadVariableOp f4 [2]
0	0x3e92ea56	0.2869441
1	0xbe92ea57	-0.28694412

sequential_2/dense_7/BiasAdd/ReadVariableOp f4 [10]
0	0x3eea6785	0.45782104
1	0xbda3ecac	-0.08004126
2	0x38ea2d6b	0.00011166449
3	0x3d8fe99d	0.0702698
4	0xbd905c27	-0.07048827
5	0x3eccdcfe	0.40012354
6	0xbdbbae5b	-0.09164115
7	0x3f06beb2	0.5263473
8	0x3c3dbc8b	0.011580597
9	0xbbbd2c97	-0.005773138

sequential_2/dense_6/BiasAdd/ReadVariableOp f4 [20]
0	0xbd532c83	-0.05155612
1	0xbcd5ece2	-0.026113931
2	0xbde2df23	-0.11077716
3	0xbdf2b804	-0.118515044
4	0x3c94d152	0.018166218
5	0xbdc94a9a	-0.09828682
6	0xbcdd1f33	-0.026992416
7	0x3c924459	0.017854856
8	0xbd5326d7	-0.051550712
9	0xbd0e9913	-0.03481395
10	0xbdc51f2a	-0.09625085
11	0x3d8af928	0.06785804
12	0x3d4e1982	0.050317295
13	0x3da0b0dc	0.07846233
14	0xbd791b18	-0.060816854
15	0xbd076ec0	-0.033064604
16	0xbd1cdd27	-0.038296845
17	0x3d0e8fc9	0.034805093
18	0xbe238134	-0.15967256
19	0xbc1b7abd	-0.009489712

sequential_2/dense_6/MatMul f4 [20, 30]
0	0xbdfcb06a	-0.12338336
1	0x3ce2d060	0.027687252
2	0xbe7f2289	-0.24915518
3	0x3e2a960d	0.16658802
4	0x3e4d4642	0.20046332
5	0x3e29574b	0.16537206
6	0xbc0e8648	-0.008699007
7	0x3e3f68a4	0.18692261
8	0xbe59dac6	-0.21274862
9	0xbe7e0cb7	-0.24809538
10	0xbebf5c2b	-0.37375006
11	0x3e8054a4	0.25064576
12	0xbdeb7789	-0.11497409
13	0xbe11e63f	-0.14247988
14	0xbee24afa	-0.44197828
15	0x3d8f0183	0.0698271
16	0xbf1abb15	-0.60441715
17	0xbe022587	-0.12709628
18	0xbf15f056	-0.5856985
19	0x3e62ab3f	0.22135638
20	0xbd66ad5a	-0.056317665
21	0xbe050a6e	-0.1299226
22	0xbe4b2a77	-0.19840418
23	0x3bd04759	0.0063561616
24	0xbf04abf8	-0.51824903
25	0xbd1e62a1	-0.03866828
26	0xbee678e5	-0.4501411
27	0xbd7ec8a5	-0.06220307
28	0x3ee17152	0.4403177
29	0xbb0d357a	-0.0021546767
30	0xbe1ecc40	-0.15507603
31	0xbeab267d	-0.33427802
32	0x3e925762	0.28582293
33	0x3c8c0b40	0.017095208
34	0xbf0db65a	-0.5535637
35	0xbe9c4101	-0.30518344
36	0x3d7f4180	0.062318325
37	0x3ecef981	0.4042473
38	0x3e3ebd39	0.1862687
39	0x3e949074	0.2901646
40	0xbe91d751	-0.28484586
41	0xbe85da42	-0.2614308
42	0x3ec6e682	0.38847739
43	0xbdc3ecc0	-0.09566641
44	0xbe94269b	-0.28935704
45	0xbdba62fa	-0.091009095
46	0x3e8d9d59	0.2765911
47	0xbb68d525	-0.0035527435
48	0xbd4c8b85	-0.049937744
49	0x3e28918c	0.16461772
50	0x3f0e2d30	0.555377
51	0xbe4d2f22	-0.20037511
52	0xbe446ac4	-0.19181353
53	0x3e51875f	0.20461796
54	0x3f0aae87	0.5417256
55	0x3e61030e	0.21973822
56	0x3d3fcdf5	0.046827275
57	0xbdaac45a	-0.08338232
58	0xbee06a2c	-0.43831003
59	0x3e21984b	0.15780751
60	0xbe9954da	-0.2994755
61	0x3ea2cd6a	0.31797343
62	0x3ac9f36e	0.0015407631
63	0xbe099097	-0.13434063
64	0x3ee59f58	0.44848132
65	0xbe53d935	-0.20688327
66	0x3ec00605	0.37504593
67	0xbe60804e	-0.21923944
68	0xbe152b52	-0.14567307
69	0xbcb765d0	-0.022387415
70	0x3d679bb3	0.05654497
71	0xbdee2cea	-0.116296604
72	0xbf4c731f	-0.7986316
73	0xbc84c523	-0.016207283
74	0x3eba33a8	0.36367536
75	0xbc927777	-0.01787923
76	0xbe7a0908	-0.24417508
77	0xbd8a7fa5	-0.067626275
78	0x3e75119a	0.23932496
79	0xbd3b607d	-0.045746315
80	0xbf362918	-0.71156454
81	0xbe13082d	-0.14358588
82	0x3db8af8e	0.090178594
83	0xbc68cc62	-0.014208885
84	0xbe79637f	-0.24354361
85	0x3e0d0c18	0.13774145
86	0x3c67e807	0.014154441
87	0xbdbfb883	-0.09361365
88	0x3f1269b7	0.5719256
89	0x3e161ddb	0.14659826
90	0xbd11a980	-0.03556204
91	0xbd6a19a8	-0.057153374
92	0x3cd4c17b	0.025971165
93	0xbe57039f	-0.20997475
94	0xbbd12675	-0.0063827583
95	0xbe1d993c	-0.15390486
96	0x3e4d8987	0.20071994
97	0xbea20861	-0.31647018
98	0xbc5bd2b3	-0.013416934
99	0xbc15b114	-0.009136457
100	0x3f36cf34	0.71409917
101	0xbec50c09	-0.38485745
102	0x3e7afa81	0.24509622
103	0x3d148f47	0.036269452
104	0x3f0f7a51	0.56046015
105	0xbee4123d	-0.44545165
106	0x3ad58d76	0.0016292769
107	0x3e1def00	0.15423203
108	0x3f2f221d	0.6841143
109	0xbec384c4	-0.3818723
110	0xbd86b0ef	-0.06576716
111	0x3dc904ab	0.098153435
112	0x3e97e7b2	0.29668957
113	0xbe407a6a	-0.18796697
114	0xbf002365	-0.5005401
115	0xbd9a3004	-0.075286895
116	0xbe5a1ab2	-0.21299246
117	0x3d9ab3cd	0.075538255
118	0x3e1e4f97	0.15460049
119	0xbd6d20ed	-0.05789273
120	0x3e5d2270	0.21595168
121	0x3e5be858	0.21475351
122	0xbdbefb57	-0.09325283
123	0x3e3e95f3	0.18611889
124	0x3b96e9c6	0.0046055047
125	0xbe719b48	-0.23594391
126	0x3d725049	0.059158597
127	0xbe0f84c0	-0.14015484
128	0xbe8e8f23	-0.2784358
129	0xbe79f136	-0.24408421
130	0xbc67a449	-0.01413829
131	0xbcfc7148	-0.030815735
132	0xbe71766c	-0.2358033
133	0xbf354c28	-0.7081933
134	0x3d6c5fe1	0.057708625
135	0xbcbacad5	-0.022801796
136	0x3f026fa0	0.50951576
137	0xbf339287	-0.7014546
138	0x3e57ef0c	0.21087283
139	0xbc43ac93	-0.011943
140	0x3ebba3d0	0.36648417
141	0xbeae66a3	-0.3406268
142	0xbe2450f6	-0.16046509
143	0x3e408f4a	0.1880466
144	0x3f0fb65f	0.5613765
145	0xbf1c7552	-0.61116517
146	0x39cc43f3	0.00038960538
147	0x3e5c6455	0.21522649
148	0x3e04aa0f	0.12955497
149	0xbd8fb469	-0.070168324
150	0x3e4d8c90	0.20073152
151	0x3d010098	0.031494707
152	0x3c18cb67	0.009325839
153	0xbdf6ca4a	-0.12050302
154	0x3e21d70e	0.15804693
155	0x3d18a89e	0.03727018
156	0x3e47dced	0.1951787
157	0xbe381504	-0.17976767
158	0xbdf6351b	-0.12021848
159	0xbdb65364	-0.08902624
160	0x3e193afa	0.14963904
161	0xbe418a4e	-0.18900415
162	0xbf56c53f	-0.83894724
163	0x3caefd41	0.021360995
164	0x3edef4b8	0.4354608
165	0xbe35850a	-0.17726532
166	0xbeeb693b	-0.45978722
167	0xbd75296c	-0.059853956
168	0x3f202368	0.62554026
169	0xbe350c31	-0.17680432
170	0xbf56838b	-0.8379447
171	0xbe0fcc5e	-0.14042804
172	0x3ed48612	0.41508538
173	0xbd37c1ac	-0.044862434
174	0xbf0a97fa	-0.5413815
175	0xbdfef8cc	-0.12449798
176	0xbea43af9	-0.32076243
177	0x3dcd7fd0	0.10034144
178	0x3ef39886	0.47577304
179	0xbcfdcd4e	-0.030981686
180	0xbd872408	-0.06598669
181	0xbd8fb938	-0.070177495
182	0xbd531ea8	-0.051542908
183	0x3e999b4b	0.30001292
184	0xbe7506f9	-0.23928441
185	0xbe406ca8	-0.18791449
186	0xbe4b0a05	-0.19828041
187	0x3e89576a	0.26824504
188	0x3e201e07	0.15636455
189	0xbddec6d8	-0.1087777
190	0x3c4d5187	0.012531645
191	0x3e4ebc40	0.20188999
192	0x3f29ddab	0.66353863
193	0xbeffafeb	-0.49938902
194	0x3e893281	0.26796344
195	0x3e041310	0.12897897
196	0x3f2c85b0	0.6739149
197	0xbed127fb	-0.40850815
198	0xbd9989a9	-0.0749696
199	0xbb9d7d02	-0.004806162
200	0x3f046c8e	0.5172814
201	0xbf43a064	-0.7641661
202	0xbd8c55db	-0.06852313
203	0xbd617e2e	-0.055051975
204	0x3ed05de4	0.40696633
205	0xbf287e33	-0.65817565
206	0x3e8c46a8	0.27397656
207	0xbd9aa698	-0.075513065
208	0x3de3174a	0.110884264
209	0xbdd140fd	-0.10217474
210	0xbe7fd47a	-0.24983397
211	0xbe74e092	-0.23913792
212	0xbe1f5349	-0.15559115
213	0x3e24ae2b	0.16082065
214	0xbe7a3e62	-0.2443786
215	0x3e8b6824	0.2722789
216	0x3cec849d	0.028871829
217	0x3d7d6b6c	0.061870024
218	0xbe8f61c2	-0.2800427
219	0x3e849124	0.25891984
220	0xbeba21e2	-0.36353976
221	0x3ca03a83	0.01955915
222	0x3edb763d	0.42863646
223	0xbd9177f7	-0.071029596
224	0xbf11c2f6	-0.5693811
225	0xbdeece97	-0.11660498
226	0x3ee79078	0.45227408
227	0x3e99fa2c	0.30073678
228	0xbeb195b6	-0.34684533
229	0xbe85854d	-0.26078263
230	0x3ef7a982	0.48371512
231	0x3e661b48	0.22471344
232	0xbf0e69d7	-0.5563025
233	0x3eaec708	0.34136224
234	0x3ee7f3dc	0.45303237
235	0xbe1a6daf	-0.15080903
236	0xbe130ab2	-0.14359549
237	0x3e182e0b	0.14861314
238	0xbea4d372	-0.3219257
239	0xbdc177e3	-0.09446695
240	0x3e111baa	0.14170709
241	0xbd036bb0	-0.03208512
242	0xbe4face5	-0.20280798
243	0xbe28ee49	-0.16497149
244	0x3e62f3c9	0.22163309
245	0xbec50306	-0.3847887
246	0x3e064a10	0.1311419
247	0xbe636830	-0.22207713
248	0x3dec5732	0.11540069
249	0xbec37e6f	-0.381824
250	0xbea8d558	-0.32975268
251	0xbdc9f649	-0.09861428
252	0xbea8f7df	-0.3300161
253	0xbca5c16f	-0.020233838
254	0x3d4aa045	0.04946925
255	0xbe8f7ed6	-0.28026456

sequential_2/dense_7/MatMul f4 [10, 20]
0	0xbd847af8	-0.06468767
1	0x3cd1c207	0.025605215
2	0xbec060b1	-0.3757377
3	0xbe318d01	-0.17338945
4	0xbf229baa	-0.63518775
5	0x3d703dab	0.05865256
6	0x3d102270	0.035189092
7	0x3f0f22fc	0.55912757
8	0xbe8bd978	-0.27314353
9	0xbd22a34b	-0.03970651
10	0xbee3e28b	-0.44508776
11	0x3e193bd1	0.14964224
12	0x3ebb3480	0.36563492
13	0xbc68d813	-0.014211672
14	0xbdb4be92	-0.08825411
15	0xbee31865	-0.4435455
16	0xbea119b9	-0.31464937
17	0x3e170672	0.14748552
18	0x3d98de68	0.074642956
19	0x3f06871f	0.5254993
20	0xbd0946c3	-0.03351475
21	0xbea0f1ab	-0.31434378
22	0xbde124ad	-0.109933235
23	0x3f077778	0.5291667
24	0x3e3e5956	0.18588766
25	0x3f26e1c9	0.6518827
26	0x3ed50c68	0.41611028
27	0xbe9cf467	-0.30655214
28	0xbd67cb2f	-0.056590255
29	0xbec75dc0	-0.38938713
30	0x3f001579	0.50032765
31	0x3d768e7d	0.06019448
32	0x3dc44c5b	0.09584876
33	0x3e72f2ee	0.23725483
34	0x3eec9e70	0.46214628
35	0x3ef120fa	0.47095472
36	0xbe69d9cf	-0.22836994
37	0x3e2a8681	0.16652872
38	0x3ebaaa89	0.36458233
39	0xbee934ee	-0.45548195
40	0x3ef3224b	0.474871
41	0xbe01e21c	-0.1268391
42	0x3f04583a	0.51697123
43	0x3eb5fa16	0.35542363
44	0x3f3dd56c	0.7415378
45	0x3ee8e485	0.45486847
46	0x3f13f376	0.57793367
47	0x3e06f92d	0.1318099
48	0xbeb3342d	-0.35000744
49	0xbdb3305b	-0.087494574
50	0x3f034551	0.51277643
51	0xbd205a88	-0.039148837
52	0x3dbeb6f7	0.093122415
53	0x3f54148b	0.82843846
54	0xbca32e13	-0.01991943
55	0x3f2945c0	0.66122055
56	0x3f21af5e	0.63158214
57	0x3f0c21e9	0.5473924
58	0x3ecbd79c	0.39812934
59	0xbadcfafa	-0.0016859465
60	0x3f0dd1dd	0.5539835
61	0xbed6da2a	-0.4196332
62	0x3ed87eab	0.4228414
63	0x3f22c4fb	0.6358182
64	0x3d87784e	0.06614743
65	0x3e871522	0.2638331
66	0x3f0ba651	0.54550654
67	0xbe02da3a	-0.1277856
68	0xbd9cc208	-0.07654196
69	0xbe3e2429	-0.18568482
70	0x3f33ca4c	0.70230556
71	0xbe9e16a9	-0.30876663
72	0xbea2853e	-0.3174228
73	0xbeceb907	-0.4037554
74	0x3ee1c981	0.44099048
75	0x3e90b25b	0.28261074
76	0x3ea35c3b	0.31906304
77	0x3b61dd7c	0.003446429
78	0x3f1bae03	0.60812396
79	0xbeac0939	-0.33600786
80	0xbdf08b93	-0.11745372
81	0x3dd5a651	0.10432113
82	0xbd9dab87	-0.07698732
83	0xbe4e7a9b	-0.20163958
84	0x3f2f305a	0.68433154
85	0x3ea52ed9	0.32262304
86	0x3ebc72c3	0.36806306
87	0xbdc5416d	-0.096316196
88	0x3ecba843	0.3977681
89	0xbd586e12	-0.052839346
90	0xbe6ce138	-0.23132789
91	0xbcd3725d	-0.025811369
92	0x3daaaf8c	0.08334264
93	0x3f193cd6	0.59858453
94	0xbebb7cea	-0.3661874
95	0x3f12c82f	0.57336706
96	0x3f2c238e	0.6724175
97	0x3f2b0331	0.66801745
98	0xbde88f77	-0.11355489
99	0x3d934a28	0.071918786
100	0xbdfa0ba9	-0.12209255
101	0x3e74c84d	0.23904534
102	0x3dc516df	0.09623503
103	0xbe7d6248	-0.24744523
104	0xbf1554d8	-0.58332586
105	0xbe23f6ad	-0.16012068
106	0xbe54c458	-0.20778024
107	0x3ee1de9c	0.4411515
108	0x3b9ff3be	0.0048813513
109	0x3ed9a314	0.4250723
110	0xbe0a3410	-0.13496423
111	0x3e77f6f5	0.242153
112	0x3e63183d	0.22177215
113	0xbebe832b	-0.37209448
114	0x3eb4b27a	0.35292417
115	0xbece9643	-0.40349016
116	0xbe893acf	-0.2680268
117	0xbf08b3a8	-0.53399134
118	0xbe45c78a	-0.193144
119	0x3edb6fae	0.42858642
120	0xbe5e63ec	-0.21717805
121	0xbddea400	-0.10871124
122	0xbee528e8	-0.44757771
123	0x3cdc86e0	0.026919782
124	0x3f15a9dc	0.5846231
125	0xbb960ed2	-0.0045794034
126	0xbe3b5c32	-0.18296888
127	0xbd848064	-0.06469801
128	0xbe724126	-0.23657665
129	0x3e683f8c	0.22680491
130	0xbe851cfb	-0.25998673
131	0xbea9cdd4	-0.33164847
132	0xbeb48341	-0.3525639
133	0xbdff90db	-0.12478801
134	0xbeaa475d	-0.3325757
135	0xbcd2c43c	-0.025728337
136	0xbe543d21	-0.20726444
137	0x3f1d2497	0.61383957
138	0x3e8b0551	0.27152494
139	0x3da4e6ab	0.08051809
140	0x3e290905	0.16507347
141	0x3ea4850b	0.32132754
142	0x3e08d14e	0.13361093
143	0xbeb84720	-0.35991764
144	0xbf03fe66	-0.51560056
145	0xbdff4781	-0.1246481
146	0xbefb1a0c	-0.4904331
147	0xbd26ceda	-0.040724613
148	0xbe981885	-0.29706207
149	0x3f179a1f	0.59219545
150	0xbee94702	-0.45561987
151	0x3f1a6af5	0.60319453
152	0x3eac981d	0.33709803
153	0xbe9042b2	-0.28175884
154	0xbc4b797a	-0.012419099
155	0xbea2cf83	-0.31798944
156	0xbf0168df	-0.50550646
157	0x3d17b229	0.03703514
158	0xbec44aeb	-0.38338408
159	0xbdda623c	-0.10663268
160	0x3ee2ad12	0.44272667
161	0xbeb18c53	-0.3467737
162	0x3edf9316	0.43666905
163	0x3eaf6094	0.3425337
164	0xbe8b0f9d	-0.2716035
165	0x3f3aa7da	0.7291237
166	0x3f012809	0.50451714
167	0xbd9a72aa	-0.07541402
168	0xbe1b7e43	-0.15184884
169	0x3de2053f	0.11036157
170	0x3e7683c7	0.24073707
171	0xbdcaf9b8	-0.09910911
172	0x3e3e4e95	0.18584664
173	0x3cefd25a	0.029275108
174	0xbf1da904	-0.6158602
175	0x3f350f6e	0.7072667
176	0x3e48dd02	0.19615558
177	0xbef4faf8	-0.47847724
178	0x3f08ff77	0.5351481
179	0x3e8368a9	0.25665787
180	0xbdcdfa7c	-0.10057542
181	0xbe972da7	-0.29527017
182	0xbe1073cd	-0.14106674
183	0xbeeed835	-0.46649328
184	0x3e87a31a	0.26491624
185	0xbe132c3f	-0.14372347
186	0xbd68b52f	-0.056813415
187	0xbdb91f16	-0.09039132
188	0xbebe4d4a	-0.37168342
189	0xbddf419a	-0.109011844
190	0x3f40c700	0.7530365
191	0xbe2bd103	-0.1677895
192	0x3d1bc227	0.038026955
193	0xbe7b1203	-0.2451859
194	0x3e6660f9	0.2249793
195	0x3f2977cb	0.66198415
196	0x3f30a612	0.69003403
197	0xbea38973	-0.31940803
198	0x3e8ed360	0.2789564
199	0xbd825241	-0.06363345

sequential_2/dense_8/MatMul f4 [2, 10]
0	0x3f527f66	0.82225645
1	0xbef95ec7	-0.48705122
2	0xbf03170b	-0.51207036
3	0xbf8dbd39	-1.1073371
4	0xbf0c3b44	-0.5477793
5	0x3f855db4	1.0419221
6	0xbf00163c	-0.50033927
7	0xbdb9e61e	-0.090770945
8	0xbdcf0e68	-0.1011017
9	0x3d174f94	0.036941126
10	0xbedceaef	-0.4314799
11	0x3e6e67c7	0.23281775
12	0x3f859592	1.043627
13	0x3f93cc90	1.1546803
14	0x3f7430b7	0.9538683
15	0xbe445f5f	-0.19177006
16	0x3b54b76d	0.0032457963
17	0xbf7f74f7	-0.9978785
18	0x3f31facc	0.6952331
19	0x3f9907bb	1.1955484
